smart_garden/vae_model.pth (torch, 27472 bytes, 14 tensors)

encoder.1.weight f4 [32, 60]
000000 82 9c c8 bd a0 22 c1 3c b1 6b 03 3e 88 eb 80 bd
       -0.097954765 0.02357608 0.1283405 -0.06294924
000010 6a e4 ee bd 0a 77 5e bd d8 f1 7d bc c0 de 9d bd
       -0.1166466 -0.054312743 -0.015499555 -0.07708502
000020 e8 01 3e bc 88 b6 bd 3c 40 6b 95 3d 72 4e ad bd
       -0.011597134 0.023158327 0.07295847 -0.08462228
000030 84 c2 57 bd a4 93 c6 bd 60 f4 b4 3d 9a 21 c9 bd
       -0.05267574 -0.09696129 0.08835673 -0.09820862
000040 b6 69 7c bd 90 57 54 3c d8 79 f3 3d 58 de ef bc
       -0.06162425 0.01296033 0.11888474 -0.029280826
000050 f9 b7 ec bd 35 48 f4 bd 08 83 c8 3d 83 03 d0 bd
       -0.115585275 -0.11927835 0.09790617 -0.1015692
000060 e4 44 00 be 0e 4d 02 be c0 38 7f 3b 38 c3 db 3c
       -0.1252628 -0.12724707 0.0038943738 0.026826486
000070 e6 15 8d 3d 48 6e b7 bc 94 27 3c 3d b4 56 2c 3d
       0.068889424 -0.022391453 0.045936182 0.042074874
000080 d5 a5 8f bd be f7 a5 bd 5a 46 d4 bd 04 ed f5 bc
       -0.07014052 -0.08103894 -0.10364981 -0.030020244
000090 68 42 29 3d f0 ad 3c 3c a0 c2 9a bd 30 31 e7 3d
       0.041323096 0.011516079 -0.07556653 0.11288679
0000a0 df b2 ac bd e0 9b 8c 3c 68 39 7b bc 58 be 13 bc
       -0.084325545 0.01716417 -0.015333511 -0.009017549
0000b0 ec 2a cb 3d 00 db 33 bb 67 32 ee bd 10 71 dc bd
       0.09920296 -0.0027443767 -0.11630707 -0.107637525
0000c0 d0 05 95 bd 34 58 df bc 64 be ba bc cc 1a 68 bd
       -0.07276499 -0.027263738 -0.022795863 -0.05666618
0000d0 5e 3e ff 3d b6 8f 64 bd 08 3c 26 bd c0 a5 eb 3b
       0.124630675 -0.055801116 -0.040584594 0.00719139
0000e0 78 1a b9 bd cc 9e f7 bc e0 41 a8 3c 48 d5 a5 3c
       -0.09038252 -0.030227087 0.020539224 0.020243302
0000f0 54 3d 1b 3e 20 57 b4 3d 0b aa 5c bd 9a f2 96 bc
       0.15160114 0.0880568 -0.053873103 -0.018426228
000100 6c 90 0a 3d 94 65 c5 bd a3 1e 25 3d 80 4f fe 3b
       0.033829138 -0.09638515 0.04031242 0.007760942
000110 41 f9 ed bd 82 01 c9 bd 1e a0 59 3e a6 86 bd bd
       -0.11619807 -0.09814741 0.21252486 -0.09254198
000120 87 99 a7 3d 54 f5 a5 bd 13 92 54 3d 84 9c d6 bd
       0.0818358 -0.08103433 0.05189712 -0.10479072
000130 42 4e 49 3e d6 ee c1 bc be d7 3c 3d b6 29 e8 bd
       0.19658759 -0.023673456 0.046104185 -0.11336081
000140 eb e7 09 3e 96 26 4f be 04 11 09 3e 43 db b4 bd
       0.13467376 -0.20229563 0.13385397 -0.08830883
000150 d2 98 95 bb 72 d4 93 3d 4f 12 59 3d 3f 68 17 be
       -0.0045653367 0.07218255 0.052995976 -0.1478586
000160 2d 91 a2 3d 21 f1 a5 3c be 24 4c bb f0 54 bb 3c
       0.07937846 0.02025658 -0.003114983 0.02286765
000170 3b bf 8c 3d 02 c9 25 be c3 88 bf 3d 58 2e 93 bd
       0.06872412 -0.1618996 0.09352257 -0.07186574
000180 08 d0 86 3c d0 27 04 be 2e 27 89 bc 4b 99 5f be
       0.016456619 -0.12905812 -0.016742315 -0.2183582
000190 aa 21 26 3e 76 53 23 bd 28 61 b9 3d 8a 38 c0 bd
       0.1622378 -0.039874516 0.09051734 -0.09385784
0001a0 f4 ac 4b bd c4 97 16 be da 72 de 3d 31 0b 65 3c
       -0.049725488 -0.14706331 0.1086175 0.013979719
0001b0 d2 ca 93 bc 38 bd f8 3c 1c c0 2e bd 76 28 48 be
       -0.018041048 0.030363664 -0.04266368 -0.19546685
0001c0 68 8f 14 3d 91 6e f0 bc 3b 11 e1 3d c8 bb 92 3d
       0.036269575 -0.029349597 0.109896146 0.07164723
0001d0 b1 a7 52 bd 74 2e 99 bd f1 26 59 3e b2 92 5d bb
       -0.051429454 -0.07479563 0.21206261 -0.003380936
0001e0 48 15 af 3d c0 66 20 3d 46 02 3f be 2d b1 19 3e
       0.08548981 0.03916049 -0.18653211 0.15008993
0001f0 34 69 68 3c 2e 7e 96 3c f4 36 21 bd ba 14 cd bd
       0.014185239 0.018370714 -0.039359048 -0.10013719
000200 d5 a5 c0 be 7e f1 88 3d 7b c6 15 bd 3a 30 b6 3d
       -0.3762652 0.06686686 -0.03656624 0.08895917
000210 8a 02 08 bd d4 19 d7 3d 2d 5c a1 be bc 5d fd 3d
       -0.033205546 0.10502973 -0.31515637 0.12371394
000220 79 ed 05 bc a4 7e c1 3d a7 f6 6e 3d c4 a6 b6 3d
       -0.008174294 0.09447983 0.058340695 0.08918527
000230 41 6c 95 be 4c 87 16 3e cf 0c 60 bd df 06 e6 3d
       -0.29184154 0.14700049 -0.054699715 0.11231779
000240 a8 fb 56 3d 74 c3 cf 3d 74 b4 6e be 72 9e c2 3d
       0.05248609 0.101447016 -0.23311025 0.09502877
000250 3d e3 5f bd 6d e1 65 3d b8 2f ae 3d 40 59 b1 3d
       -0.05466007 0.056123186 0.085051954 0.08659601
000260 a4 11 4d be 65 e0 a4 3d 6b 69 bf 3c 79 fe ae bd
       -0.2002626 0.08050612 0.023365697 -0.085446306
000270 04 19 af bc 5e 60 f9 3d 7d b6 cf bd 40 95 92 3d
       -0.021374233 0.12176584 -0.10142229 0.071573734
000280 b5 c7 88 3d 30 ce dc 3c 31 fd 68 3d 04 9d 0e 3d
       0.06678716 0.026953787 0.056882087 0.03481771
000290 35 a4 3b be f7 b9 52 3d c8 cc 4b bd 3a 14 02 3e
       -0.18324359 0.05144688 -0.04975584 0.12703028
0002a0 8c 98 a7 bd 0c e5 f4 bc 26 93 84 be 45 23 97 3d
       -0.08183393 -0.029894374 -0.25893515 0.07379774
0002b0 b2 16 af bd 4a 9a 08 3e f3 ef 87 bc 00 93 34 3c
       -0.08549251 0.13340107 -0.016593909 0.011021376
0002c0 d7 b7 ec bd 00 05 a1 3d 86 fc ab bd 42 4a 41 3d
       -0.11558502 0.07862282 -0.083977744 0.04718996
0002d0 cb d6 2f 3a 03 d7 b6 bd d9 c3 93 3c 73 5c 30 be
       0.0006707727 -0.08927729 0.018037723 -0.17222767
0002e0 3f bf 53 bc 50 43 f6 3c a5 76 ba 3d fc e9 13 3d
       -0.012924015 0.030061394 0.09104661 0.036111817
0002f0 57 95 16 3e 78 3a fa bd d3 78 36 bd e9 26 ac bd
       0.14705406 -0.12218183 -0.04454882 -0.08405859
000300 f8 24 53 bd ea f1 b4 3d 78 73 0e 3e 3a ff 94 bd
       -0.051548928 0.08835204 0.13911235 -0.07275243
000310 f1 fc 3c 3a c6 79 29 be 6f b7 e7 3d 1c 7d f7 bd
       0.0007209322 -0.16550359 0.11314284 -0.120844096
000320 9c e8 31 3e ff 96 5f be de 65 fd 3d 77 e9 01 be
       0.1737389 -0.21834944 0.12372945 -0.12686716
000330 a2 d2 b0 3d 70 e2 dc 3d fb 62 21 3c 0b d5 02 be
       0.08633925 0.10785377 0.009850259 -0.12776582
000340 cf 87 a1 3c 54 0a 60 bd f1 ff d0 3d 7c 28 0d bd
       0.019718079 -0.05469735 0.10205067 -0.034462437
000350 e7 aa 2e 3e 17 56 4d be bb 06 af 3d b3 9c 74 3d
       0.17057382 -0.20052372 0.085462056 0.059719753
000360 fd b8 99 3d fc 4d a9 3d 71 4d 57 3c 3c 5d 79 bd
       0.07505987 0.082668275 0.013141022 -0.06087993
000370 1a 83 0f 3e f7 a0 a6 3c 59 50 2d 3c de 85 2a bd
       0.14014855 0.020340426 0.010578238 -0.041631572
000380 b2 42 c7 3d e1 06 31 be 6a 81 77 3b a1 96 92 bc
       0.09729518 -0.1728778 0.0037766346 -0.017894091
000390 23 e2 68 3d 7c cb d3 3d ef fd 14 3e dc 84 38 bd
       0.056856286 0.10341546 0.14549993 -0.04504858
0003a0 ae c5 87 3d 35 3f ce bc f2 c2 02 3c 14 30 6f bd
       0.06629501 -0.025176624 0.007981049 -0.05839546
0003b0 d6 e0 3e 3d 29 1f 21 be e2 47 7f bc 90 7c 06 3d
       0.04660114 -0.15734543 -0.015581103 0.032833636
0003c0 06 5d 77 bd ec 51 f1 bc f5 8b 69 3d 4d 54 af 3c
       -0.06039145 -0.029458009 0.05701824 0.021402502
0003d0 ee cd 6a bd d0 bd cb bd 42 e3 91 3d aa a8 02 bd
       -0.057325296 -0.09948313 0.07123424 -0.03189913
0003e0 a6 3d 2a 3e 28 9b e2 3d 01 0b b6 bd df 71 5b bd
       0.1662508 0.1106475 -0.088888176 -0.053575393
0003f0 e6 96 ba 3d 7c 94 49 3d 43 61 d2 3d b5 45 44 bd
       0.09110813 0.04921387 0.102724575 -0.04791804

encoder.1.bias f4 [32]
000000 f8 55 59 bd dc 04 d8 3e 37 e3 80 3e a1 ed a8 3e
       -0.0530605 0.42191207 0.2517335 0.32993796
000010 c3 a2 ac 3d a5 03 80 3b bd c5 10 be 65 ac 5c 3c
       0.08429482 0.0039066845 -0.14137931 0.013468836
000020 4e dc 83 3d fb a2 91 be 7f d2 2f 3d 9e 60 1d 3e
       0.06438504 -0.28444657 0.042925354 0.15368888
000030 1b a5 8a 3e f9 7d 28 be dc ff 95 bb 05 f5 33 bd
       0.2707909 -0.16454305 -0.00457762 -0.04393484
000040 71 af e6 bd a8 ec dc bd 8b b6 64 be 4d 54 90 3e
       -0.112639315 -0.10787326 -0.2233526 0.28189316
000050 65 73 86 3c 41 2a c0 bd 14 46 96 3c af 77 2c 3d
       0.016412446 -0.09383059 0.018343963 0.042106327
000060 c6 e9 b0 3e fc 5d 35 3c 1c b8 5f 3e 31 c8 29 3b
       0.34553355 0.011069771 0.21847576 0.0025906677
000070 eb cb 38 3e dd c1 27 bc 04 a3 c0 3e 6a 6b 59 bd
       0.18046539 -0.010239092 0.3762437 -0.053080954

encoder.3.weight f4 [16, 32]
000000 c0 fe 0a bc 07 00 83 bc 1d 87 70 3c 4b 0b 2d 3d
       -0.008483589 -0.015991224 0.014680651 0.042247098
000010 73 c5 ae bd d2 9e d0 3d 31 6c 15 bc 22 9e 99 3b
       -0.08533754 0.101865426 -0.009120033 0.0046880404
000020 ee f7 69 3d 88 26 a3 3d 10 25 4d bd bc 5a 76 3d
       0.05712121 0.07966334 -0.050084174 0.060145125
000030 1d e8 49 be 83 68 0e 3e 1e 08 28 3d 8a 36 b7 3d
       -0.1971745 0.13907056 0.041023366 0.089459494
000040 65 82 c6 bc a2 b9 9a 3d 2c f2 f1 bd f2 a5 21 be
       -0.024232099 0.07554938 -0.11813769 -0.1578596
000050 34 1a 22 3e ef 67 06 be b1 53 a6 3b d9 0f b2 bc
       0.15830308 -0.13125585 0.0050758948 -0.021736072
000060 0b b3 3f bd 6e 2b 1f be 12 a6 1b be 6e a7 c4 3d
       -0.046801608 -0.15543911 -0.1520007 0.09602247
000070 c5 72 c8 3d 1a 39 35 be 80 ef 0f 3d 9b 1d 83 3d
       0.097875156 -0.17697564 0.035140514 0.06402131
000080 7e 5f a0 3d 75 bc e4 bd 92 3a 16 3d 94 6d 4b be
       0.07830714 -0.11168758 0.03667695 -0.1986602
000090 6d 3e 42 be 1c 34 d6 bd 68 71 1b 3d f5 52 b8 3d
       -0.18969126 -0.10459158 0.03794995 0.09000198
0000a0 98 78 b5 bb c1 f4 00 bc b8 72 fb 3d 6c b9 23 3e
       -0.0055380575 -0.007870854 0.1227774 0.15988702
0000b0 89 a5 be bc d1 61 04 3e 4c e9 71 bd 18 19 07 be
       -0.023272293 0.12927939 -0.05906038 -0.13193166
0000c0 58 5b f8 bd 4c 15 b0 bd 8c ed 07 be 5c 97 aa 3d
       -0.121267974 -0.08597812 -0.1327421 0.08329651
0000d0 95 f2 f4 3d 48 6b cf bd 7a 0e 51 be fd a5 c3 bc
       0.11960331 -0.10127884 -0.20415679 -0.02388286
0000e0 c2 12 2c bc 3e 3e 02 3e 63 f0 46 be db 84 0b 3e
       -0.010502519 0.12719056 -0.19427638 0.13624899
0000f0 33 99 cf 3d 00 66 96 bc 7c be 2c be 33 76 09 3b
       0.10136642 -0.018359184 -0.16869539 0.0020974993
000100 e4 d5 08 3d e3 1d c9 bc 36 a3 4c 3e 14 69 34 3e
       0.033407107 -0.024550384 0.19984135 0.17618209
000110 9a 0c 06 3e bd 5d 29 be fc f5 9a bd 71 fc f8 bc
       0.13090745 -0.16539665 -0.07566449 -0.030393811
000120 fe 14 cd bd 28 db 1e be 39 fe c1 bd f7 59 8f 3d
       -0.100137696 -0.15513289 -0.09472317 0.06999581
000130 a6 3b 24 3e 8d 09 23 be 6f 46 59 3e 4a 41 a4 3d
       0.16038379 -0.15921612 0.21218275 0.080202654
000140 16 da a7 3c e5 55 db bd b2 ca 00 3d 17 1e 42 3e
       0.020489734 -0.107097425 0.031443305 0.18956791
000150 8a 4b 3e 3e 86 ea 27 bd a1 c9 17 bd 3a 03 f3 bd
       0.18583503 -0.040995143 -0.037057523 -0.1186585
000160 41 f3 57 3e fe 39 bf 3d 2f 2c 83 3c a0 b4 4c bd
       0.21088888 0.09337233 0.01601228 -0.049976945
000170 81 b5 88 3e cc da 0e 3d f4 ac b0 bd dd 59 f9 3d
       0.26700976 0.03487663 -0.08626738 0.12175343
000180 e8 68 34 be 37 35 90 3e 77 87 a4 3e 93 c5 48 3e
       -0.17618144 0.281656 0.321346 0.19606619
000190 88 01 99 bd 95 af f6 3d 5b bd 17 bd 03 0c 5c 3d
       -0.07470995 0.12045208 -0.037045818 0.053722393
0001a0 e5 c8 e3 3d 46 2c cf bd df 7b 12 3e 3e d0 43 3e
       0.11122302 -0.10115866 0.14305066 0.19122407
0001b0 51 ef 71 3e 4d fd be bc 35 00 38 3d 74 07 10 be
       0.23626448 -0.023314143 0.044922072 -0.14065343
0001c0 94 cc eb 3d 08 39 72 3b b1 25 27 3d 41 5b c7 3e
       0.115136296 0.0036960263 0.04080743 0.3893681
0001d0 aa 21 4e bd 66 d0 2e be fc cd bb 3d 5c 9e 1f bb
       -0.050325073 -0.17071685 0.09170148 -0.0024355864
0001e0 b1 1b b3 3e e2 7b 2e 3e 2b 00 87 3c 84 8b ac bd
       0.34982064 0.17039445 0.016479572 -0.08425048
0001f0 a8 fa 4d 3e 48 14 b9 3d fd dd cd 3d 61 97 87 3d
       0.20115149 0.090370715 0.100521065 0.0662067
000200 56 04 c6 3d f5 fc 9c 3e 03 16 e0 bd 55 d6 87 3d
       0.09668796 0.3066174 -0.109416984 0.066326775
000210 ca a8 dd 3b 4c b1 c2 3d 03 11 8c bd ad 33 11 bd
       0.006764506 0.09506473 -0.06839182 -0.035449672
000220 04 81 e0 3d 52 c4 91 3e 82 9e b3 3b 81 a5 3c 3e
       0.10962108 0.28470093 0.005481542 0.1842251
000230 89 b1 29 be 11 21 a3 bd 59 1a 97 be 4f ba bc 3d
       -0.1657163 -0.07965291 -0.2951229 0.09215223
000240 db cd f9 3d 73 84 50 3e fe ef ab bd 21 c7 a2 3c
       0.12197467 0.20363025 -0.08395384 0.019870343
000250 9c 45 31 be 84 e0 45 3c 6b e4 83 3e 49 25 7d be
       -0.1731171 0.0120774545 0.25760207 -0.24721254
000260 43 63 f0 bd 80 cf b3 bd 9b 86 2b 3d de a0 dc bd
       -0.11737683 -0.08779812 0.041876417 -0.107728705
000270 fd 78 f5 bd d9 17 4e 3e fc 8a a0 3e 31 0c 12 3e
       -0.11985967 0.20126285 0.31356037 0.14262463
000280 cc 9d 03 be 9a 97 22 bd e5 30 03 bd 04 eb 21 be
       -0.12853163 -0.03969536 -0.03202905 -0.15812308
000290 6b 42 82 3d 9a e3 0b bc f4 79 10 be de f7 90 bb
       0.063603245 -0.008538151 -0.14109021 -0.0044240793
0002a0 bb 23 bd 3d 38 7b ef 3d 71 91 25 bd db 70 21 3e
       0.09235331 0.11693424 -0.040421907 0.15765707
0002b0 7b 1e 1b be 17 64 db bd 57 51 36 3d af 7e 54 bc
       -0.15148346 -0.1071245 0.044511165 -0.012969657
0002c0 f1 d9 13 3e f4 32 be bd e1 7d 51 3d f9 9b 9e bd
       0.14438607 -0.09287062 0.051145438 -0.07744593
0002d0 b8 73 1e 3e 55 73 f6 bc f5 07 e9 bd fd 37 4d 3d
       0.1547383 -0.030084291 -0.11378471 0.050102223
0002e0 5d d2 6e bd 40 0c 0a bd 1c cb 1b be 46 0a 12 3e
       -0.058306087 -0.03370309 -0.15214199 0.14261732
0002f0 f9 56 f3 bd 0c 8b 00 be 7a 5f cf bd 40 c3 51 bd
       -0.11881823 -0.12553042 -0.101256326 -0.051211596
000300 ad a9 0e 3e 70 e0 95 be 4d f4 4b be ba dc 3a be
       0.13931914 -0.29272795 -0.19917412 -0.18248263
000310 57 2e a6 3d f8 72 e3 bc ed 0c 28 3e 3b bd 94 3d
       0.081143074 -0.027764782 0.16411181 0.07262655
000320 d7 80 f4 bd 5c 6b 33 3e 72 5e c3 3d 49 08 c1 3d
       -0.11938637 0.17521423 0.095394984 0.094254084
000330 9c 0f 91 be 9e 91 a5 3e 21 60 ed bd 50 75 bd 3d
       -0.28332222 0.3233766 -0.11590601 0.09250891
000340 cc ec ed bd 69 ac a0 3d 6f 81 5b 3e 99 c0 a5 be
       -0.11617431 0.07845385 0.21436094 -0.32373503
000350 58 a5 89 3d 7f 41 32 3e 54 94 00 3d 3b 0e 26 be
       0.0672099 0.17407797 0.031391457 -0.16216366
000360 80 bb 92 be 04 b6 d6 3b 99 ed 01 3e 30 0a 6e 3d
       -0.28658676 0.0065524597 0.12688293 0.058115184
000370 f4 47 93 be 3d 35 cf 3d 37 6f 82 be e4 39 82 3e
       -0.28765833 0.10117576 -0.25475475 0.25434792
000380 6e fa 92 3d 45 ac 21 3d 81 03 2c be 6a f2 e5 bd
       0.07176672 0.03947093 -0.16798212 -0.112278774
000390 2b 5f c8 3d 00 a0 53 3a 6a 4a 12 be c7 c0 e5 3d
       0.09783777 0.0008072853 -0.14286199 0.1121841
0003a0 30 d9 15 be 99 c9 2e 3c 6d ef 1e bd 0f 0a e9 bb
       -0.14633632 0.010668182 -0.038802553 -0.007111795
0003b0 b0 6d 75 bc 58 3d dc bd bc 5a 17 3d 25 39 51 be
       -0.014979765 -0.10753888 0.036951765 -0.20431955
0003c0 c8 6f 2c be 13 74 2c bd 1d 29 ad b9 52 7f 23 bd
       -0.16839516 -0.042102885 -0.00033027763 -0.039916344
0003d0 22 a4 01 be 6e 97 f5 bc 4a fd 6d 3d c9 0a ac bd
       -0.12660268 -0.029979434 0.058102883 -0.084004946
0003e0 1e 28 d1 bd 6e 4e fe 3d 0c 9e 83 3d 4a 6e 06 3e
       -0.1021273 0.12417303 0.064266294 0.1312801
0003f0 75 db 42 be 17 eb 43 be b4 82 9e 3d 5b c8 4c be
       -0.19029029 -0.19132648 0.077397734 -0.19998305

encoder.3.bias f4 [16]
000000 74 09 e5 bc aa 8f 90 3d 2b ac 85 3e cf e6 b1 3e
       -0.02795861 0.07058652 0.26107916 0.34746405
000010 0a e2 0a 3e df 5b 1d 3e 3d cf 56 be 65 f7 c6 bd
       0.1356279 0.15367077 -0.20977493 -0.097151555
000020 30 ea d1 3b e6 6c ae 3e 93 75 94 3c f1 51 85 3e
       0.006406091 0.34067458 0.01812247 0.2603908
000030 c8 0e 4f 3e b6 ce e0 3d 9c ac 0d be 36 7e 3d be
       0.20220482 0.10976927 -0.13835377 -0.18505177

fc_mu.weight f4 [8, 16]
000000 af 1f 57 3d 9c 98 3e 3e f7 8e 6c be 87 52 ec 3d
       0.05252045 0.18612903 -0.23101412 0.11539178
000010 f8 12 09 be 0d 38 21 bd 64 fa 8a 3d 1a bc 62 be
       -0.13386142 -0.039360095 0.067860395 -0.22142068
000020 e7 f3 9d 3d 7b 32 92 3e 45 5d d7 bd 10 25 9b bd
       0.07712536 0.2855414 -0.105158366 -0.075754285
000030 fc bb ec bd ae 32 2d be 9b c9 30 bc 56 8d f4 bd
       -0.11559293 -0.16913864 -0.010790254 -0.1194102
000040 c0 40 f5 3d cb 55 c1 3a 9e c4 9a be dc 7a c7 be
       0.11975241 0.00147503 -0.30228132 -0.38960922
000050 6e fb 7b 3e 8b 21 4a 3e e3 04 c6 3e 2c 2b ee 3d
       0.24607632 0.19739358 0.38675603 0.11629328
000060 d9 6c 9f 3e 37 26 b0 bd 9a 01 24 be 8b 39 d3 bd
       0.31137732 -0.08601039 -0.16016236 -0.1031371
000070 1d 13 fd bd 4d e9 21 3d e4 aa 9a 3d 84 22 6b 3e
       -0.12357161 0.039529134 0.07552126 0.22962385
000080 cf a9 10 3d 7c af 06 be ca 2f 45 3d 63 58 a2 3d
       0.035318192 -0.1315288 0.04814128 0.07927015
000090 93 bd 9b bb b7 1f d1 bd 16 fb 98 3c 1b 3f 34 3e
       -0.0047528236 -0.10211127 0.018674415 0.17602198
0000a0 ce 4e 6c be 7e 02 2e 3e 75 3f bb 3d be 77 b8 be
       -0.23076937 0.16993138 0.09142963 -0.36028856
0000b0 12 06 26 3d bc 5a 4e bd fc b1 2f be 39 df d1 3d
       0.040533133 -0.0503795 -0.1715774 0.102476545
0000c0 6c 8d 1d be 27 9e c6 3d 63 e6 28 be 06 a8 d3 3d
       -0.1538598 0.09698134 -0.16494136 0.10334782
0000d0 7a 65 82 bd 2d ac 0f be 55 27 bb 3d b7 7d 41 3d
       -0.06367011 -0.14030524 0.09138361 0.04723903
0000e0 e6 0b f9 bd 7f 18 96 bc c0 f7 24 3e e6 33 1e be
       -0.121604726 -0.018322228 0.16110134 -0.15449485
0000f0 8a 47 bf 3d 70 3d 32 3e dd 73 a1 bd b2 d5 53 be
       0.09339817 0.17406249 -0.07883427 -0.20686987
000100 c3 6e 43 3e 56 16 1a be 00 9a 89 3e 84 60 fe 3c
       0.19085221 -0.15047583 0.26875305 0.031051882
000110 e2 c3 ac 3c f0 7d 65 be 9d 37 08 be 14 55 dd 3b
       0.021089498 -0.22411323 -0.13302465 0.006754527
000120 c2 5f 84 3e f7 e2 99 3d 41 98 b6 be de b6 b0 3d
       0.25854307 0.07513993 -0.35663036 0.08628629
000130 f9 fa 31 be 9f f4 7f 3d dd 81 3c be 72 af 72 bb
       -0.17380895 0.06248915 -0.18408914 -0.0037030843
000140 e6 b1 e3 bd 42 24 9c bd 1a 13 d8 bd b5 78 d1 bb
       -0.11117916 -0.07624103 -0.10550518 -0.006392563
000150 ea 2e c2 bd 75 b9 33 bd 13 33 2e bd 99 df 36 be
       -0.094816044 -0.043878037 -0.042529177 -0.17858733
000160 26 44 18 bd 45 de 22 3e c5 36 d8 3d 39 c6 ba bd
       -0.037174366 0.15905102 0.105573215 -0.09119839
000170 56 c1 ec ba 83 21 80 3d b2 65 fc bd 2a 6f 3c 3d
       -0.001806299 0.06256392 -0.12324084 0.04600445
000180 95 21 cf bd fb eb 5d 3e 77 4b 90 3d 57 12 09 be
       -0.10113827 0.2167205 0.07045644 -0.13385902
000190 c7 0b eb 3b 5c 3a ae 3d 59 34 06 bc 65 ae 0f bd
       0.007173035 0.08507225 -0.008191192 -0.035078425
0001a0 7d 92 ea 3b 56 e3 c2 bd 95 47 46 bd 8f ec ad 3d
       0.007158576 -0.09516017 -0.04840811 0.084923856
0001b0 1f b4 5b 3d 71 8b 3e be 67 d7 ce bd 55 ca e7 3d
       0.053638574 -0.1860788 -0.100996785 0.11317889
0001c0 b3 ec ef 3d 5f 6d b0 bd 33 da 06 3e 2c 7b eb 3c
       0.11715069 -0.08614611 0.13169174 0.028745256
0001d0 5c ee 23 3e 4c 1c 6d be e1 23 f1 3c be a1 8e 3d
       0.16008896 -0.23155326 0.029436054 0.069644436
0001e0 34 9e 14 3e 85 3f 6b be 1b 7c c2 3d a7 ae 88 3d
       0.14513475 -0.2297345 0.094963275 0.06673937
0001f0 9b 3a b2 bc 88 7f a7 bd 6a 40 0c be 11 d3 a3 bd
       -0.02175646 -0.081786215 -0.13696447 -0.07999242

fc_mu.bias f4 [8]
000000 84 f5 9d 3d 1c 45 18 bc e5 ac 8e 3d 2f b6 b9 3d
       0.07712844 -0.009293821 0.06966571 0.09067952
000010 21 08 7e be 3c 46 ba 3d 9c 85 d3 3d 9b e8 50 be
       -0.24807788 0.090954274 0.10328218 -0.20401232

fc_logvar.weight f4 [8, 16]
000000 cb d1 57 bd 2f ff a6 bc dd 7f bd 3d fb 8d 97 bc
       -0.05269031 -0.020385353 0.092529036 -0.018500319
000010 fa 82 b2 bd 4b 1f ef 3c 9b 65 c0 3d 19 0f 2e be
       -0.08716388 0.029189726 0.0939438 -0.16997947
000020 84 2f e3 3d 89 59 0e be b8 b9 09 be 6b fa 31 bd
       0.11093047 -0.13901342 -0.13449752 -0.043451708
000030 45 12 23 3e 33 75 3b be 15 81 fc 3d 48 b4 c0 bd
       0.15924938 -0.18306427 0.12329308 -0.09409386
000040 18 28 18 be ca e7 e5 3d 99 b0 40 3c c5 23 73 be
       -0.14859045 0.11225851 0.011760854 -0.23744114
000050 1e 47 da be 7d 96 4e be 1d cc 57 3e 28 82 35 3e
       -0.42632383 -0.20174594 0.21073957 0.17725432
000060 43 20 83 be 5d c4 bf be da f0 9e bd 24 ad ed be
       -0.2561055 -0.374545 -0.077607825 -0.46421158
000070 d6 9a b9 be 1e c5 83 3c 6b 83 3e 3c e3 90 9b bd
       -0.36250943 0.016085204 0.011628012 -0.07595994
000080 de 98 39 be 94 41 41 bd 57 04 80 bd 5f 5d e7 3d
       -0.1812472 -0.04718168 -0.06250828 0.11297106
000090 48 09 b3 bd 88 68 27 be b4 07 5c 3d 5f 85 fd 3d
       -0.08742005 -0.1634847 0.053718284 0.12378954
0000a0 35 b7 02 3e c3 ae 92 be fa da 15 be 1e c2 f6 3c
       0.127652 -0.28648958 -0.14634314 0.03012186
0000b0 df f1 7a 3e a9 da 43 3e 52 95 85 bc 57 29 03 be
       0.24506329 0.19126381 -0.016306553 -0.12808739
0000c0 49 a5 72 3e 13 61 43 3d 70 51 8d bd 71 8b fa bd
       0.23695864 0.0477 -0.069002986 -0.122336276
0000d0 b3 22 72 be d7 6a 60 3e ed fa ae 3d 3c b0 bf 3d
       -0.23646049 0.21915756 0.08543954 0.09359786
0000e0 24 e3 85 bc e3 6c 42 3e 3f 48 e8 3d eb 43 88 bd
       -0.01634366 0.1898685 0.11341905 -0.06653579
0000f0 86 4d 71 3e 8f 0a eb bd d7 b1 7d 3e 9b df 28 3e
       0.23564729 -0.11476623 0.24774872 0.16491549
000100 83 be 6a bc dc 5c 08 3d 4c d9 f7 bc d7 21 e9 bd
       -0.014327648 0.033291683 -0.030254982 -0.113834076
000110 87 c5 96 be 8e 24 14 bd fa e3 42 3d e2 9d 2f be
       -0.29447576 -0.036167674 0.047580697 -0.17150071
000120 28 f2 4b 3d d6 85 95 3e d8 59 f6 3d 9c 6d 94 bd
       0.049791485 0.2920367 0.12028855 -0.07247469
000130 86 6f 86 3e f5 6a ff 3d db 96 68 3e f9 d4 ea 3d
       0.2625696 0.12471572 0.22713797 0.114664026
000140 d8 31 16 be 57 eb 3f 3d 1e fe ec bc 19 48 ae bd
       -0.14667451 0.046855297 -0.028929766 -0.08509845
000150 a1 9f 6b be ba f8 63 3d cc fa b5 3d 1e 04 e2 3b
       -0.23010112 0.055657126 0.08885726 0.0068974635
000160 09 53 a9 3d b8 62 8a bd 1e 07 db bd 92 2b 03 bd
       0.08267791 -0.0675711 -0.10694717 -0.032023974
000170 f0 d0 65 3e 84 b1 2d be cf 15 4e 3e 32 35 4f 3d
       0.22442985 -0.16962248 0.20125507 0.05058784
000180 1e 27 43 3e fc 39 20 3e 08 80 6d 3e bb 28 33 be
       0.19057891 0.1564712 0.23193371 -0.17496006
000190 75 d5 42 bd 6c 4c 2b 3d 0c 40 aa 3d 45 bf 3e 3e
       -0.04756685 0.04182093 0.08312997 0.18627651
0001a0 ce f9 c7 bd e4 8f c7 3c e8 57 18 bb d3 11 dd bd
       -0.09764443 0.024360605 -0.0023245756 -0.10794415
0001b0 c8 7b 40 3e 9a 07 1d be 32 5c 56 3d 77 8c ea 3d
       0.18797219 -0.15334931 0.052334018 0.11452573
0001c0 46 45 72 3e b6 13 4a be dc 78 48 3d 14 52 a7 bd
       0.23659238 -0.19734082 0.048943385 -0.08169952
0001d0 c8 cb 3a be ca ee 1e 3e 66 a7 e9 bb 7f 79 67 bc
       -0.18241799 0.15520778 -0.007130551 -0.014128088
0001e0 88 b2 d0 3d c9 ce 7c bd ec ed 20 be 70 dc 8a 3d
       0.10190302 -0.061720643 -0.1571576 0.06780326
0001f0 4e 54 4c 3e 41 b6 ed 3d cf 9c c6 bc ce 21 64 3d
       0.19954035 0.11607028 -0.024244694 0.0556963

fc_logvar.bias f4 [8]
000000 b0 36 08 3d 3c 8f ca be c2 ec de bd 1c 43 6c 3d
       0.03325528 -0.39562404 -0.10885002 0.057681188
000010 fd 85 d9 bd f0 fb 39 3e 91 ce cb 3c 14 fd b9 ba
       -0.10621259 0.18162513 0.024878772 -0.0014189803

decoder.0.weight f4 [16, 8]
000000 ce b8 90 3e ef a4 87 3e b3 e3 a4 be df 22 75 3c
       0.28265995 0.26493022 -0.3220497 0.014961927
000010 8e 80 2d 3e 7f f2 9f 3e b2 7f ae 3d 01 84 13 3e
       0.16943571 0.31239697 0.0852045 0.14405824
000020 dd ca 98 bc 73 9e 52 3e d6 1e 9d 3e a4 e8 52 3e
       -0.01865142 0.20568256 0.30687588 0.20596558
000030 d5 90 02 3e 30 e4 a7 be eb 41 12 3e 26 9e 74 3e
       0.12750562 -0.3279128 0.14282958 0.23888454
000040 b5 d0 95 be a8 0f 92 3e 99 90 3c be 91 12 2b be
       -0.29260793 0.2852757 -0.18414535 -0.16706301
000050 c9 a6 72 be 3e 0a a1 be 34 92 f3 bd fa 82 ce bc
       -0.23696436 -0.31453127 -0.118931204 -0.025208939
000060 91 1c 85 3e 67 c0 60 bf 92 1b cd bd 85 3e 5c be
       0.25998357 -0.8779358 -0.10015024 -0.21508224
000070 91 7f 43 be c5 10 4a 3d d3 ce b1 bc 8b e1 81 be
       -0.19091631 0.0493324 -0.021705067 -0.25367388
000080 76 73 dc 3c 66 d3 11 3f e0 38 52 3d 90 d0 bf bc
       0.026910525 0.56963193 0.05132377 -0.02341488
000090 bf cb 38 be 57 c4 3e bc dd de 86 bc 93 e6 a6 3d
       -0.18046473 -0.011643491 -0.016463691 0.08149447
0000a0 39 38 61 3e 08 be e1 be af f6 ca bc 1c 52 a8 3d
       0.21994103 -0.44090295 -0.024775831 0.08218786
0000b0 4f 48 89 3d 88 a0 52 be 33 99 21 bd 7c 26 b1 3d
       0.06703245 -0.2056905 -0.039452743 0.086499184
0000c0 9e 58 9b 3e 2e e3 65 3f 4f 26 31 be ed ea e2 bd
       0.30341047 0.89799774 -0.1729977 -0.11079965
0000d0 f7 da 0a 3d 6f ae 1b be f9 44 fd 3d 6a c7 27 be
       0.033900227 -0.1520326 0.12366671 -0.16384664
0000e0 64 4e 58 be c5 b0 72 bf de 36 8b 3d 37 7e a2 3d
       -0.21123654 -0.9480098 0.067975745 0.0793423
0000f0 a1 fe e3 3c a0 77 fa bc 35 e6 c1 bd 8a 5b 44 3e
       0.027831377 -0.03057462 -0.09467737 0.19175544
000100 8f ad be 3c e0 76 93 bc 46 8e 62 3e 64 64 0a 3e
       0.023276119 -0.01800102 0.22124586 0.13514858
000110 55 f7 25 be fc 9c 12 3e 95 aa 13 3e f9 01 8d be
       -0.16207631 0.14317697 0.1442054 -0.27540568
000120 7f 7b a1 bc 4f da 19 3f 4c d7 12 3e 7b ae da bd
       -0.019712208 0.6009874 0.14339942 -0.10677811
000130 36 4e db 3d c1 2b c3 bd 01 24 52 be 8c d5 c1 bd
       0.10708277 -0.0952983 -0.20521547 -0.09464559
000140 94 fa 36 3d ca 74 22 3f cb 62 78 3d 39 09 58 3d
       0.044672564 0.63459456 0.06064109 0.05274317
000150 41 94 40 3e 9c a1 fe 3d c7 67 ea 3d 93 fb 0e 3e
       0.18806554 0.12433168 0.11445575 0.13963155
000160 21 fe e3 bd 05 b3 11 3f 17 f8 4c bd a1 be 00 be
       -0.111324556 0.5691379 -0.050041284 -0.12572719
000170 d9 91 b9 3c 4a d1 d7 3d 8e 37 aa 3d 90 87 ee 3c
       0.022652553 0.105379656 0.083113775 0.029117376
000180 35 29 78 be 69 fd 93 be 35 e9 8d be 69 cc 4f be
       -0.24234469 -0.28904274 -0.27716985 -0.2029282
000190 af ce a3 3e eb 1e ff bc 5d 54 11 bd 53 46 d3 bd
       0.31993625 -0.031142673 -0.035480846 -0.10316148
0001a0 7d 7c 59 be d7 41 8f bf 66 68 a0 3d 69 f6 06 bd
       -0.21238895 -1.1191968 0.078324124 -0.03294984
0001b0 be 7a 0c 3d 14 81 0c 3e f9 76 fe 3d 8a d9 30 bd
       0.034296744 0.13721114 0.12425036 -0.04317621
0001c0 e6 68 2c 3e 9f f4 8c bf f3 69 f0 3d 57 ca 82 3e
       0.1683689 -1.1012152 0.11738958 0.25544998
0001d0 33 e8 26 be a6 b7 d4 3d 30 6d b7 3d 50 9c 34 3d
       -0.16299514 0.10386591 0.08956373 0.044094384
0001e0 11 18 59 bd 62 c5 da 3e 3c 14 11 be 89 d7 a4 3e
       -0.053001467 0.42728716 -0.14167875 0.3219569
0001f0 65 cd 64 be 76 8b 86 3e d4 f8 e4 bd b1 14 72 3d
       -0.22343977 0.26278275 -0.11180273 0.059101764

decoder.0.bias f4 [16]
000000 87 82 39 3e 92 76 fa 3d 2e 24 a8 3e 5f 57 d5 3e
       0.18116198 0.12229647 0.32840103 0.4166822
000010 09 9c 2e 3f 48 6b 46 3f ca 51 6e 3e 4c 52 9b 3d
       0.6820684 0.7750745 0.23273388 0.07584056
000020 0e 81 20 3f 34 51 cc 3e 01 5e 2e 3f fb 26 0b 3f
       0.6269692 0.39905703 0.6811219 0.54356354
000030 3f c0 ea 3e 64 dd 8c 3e db 5a fd bc 08 1d 07 3f
       0.45849797 0.27512658 -0.030927112 0.52778673

decoder.2.weight f4 [32, 16]
000000 46 13 d5 bd 75 a0 36 be 0f 5b 05 be bb b9 80 3d
       -0.10404067 -0.17834647 -0.13023017 0.06285425
000010 b3 30 01 bc 5c 07 38 bd 9a 5f 19 bd 0f 79 81 be
       -0.007885146 -0.044928893 -0.03744469 -0.25287673
000020 e5 bd 0a be 94 d6 6e be 9f 1e c4 3d 73 61 1e be
       -0.13549002 -0.23324043 0.09576153 -0.15466861
000030 16 29 78 bd 78 43 0d 3e 44 a8 10 be cf b6 d8 3c
       -0.060586058 0.13795269 -0.14126688 0.026454357
000040 ba 33 03 be d4 a1 49 be b4 6c ae 3d 6f c8 74 3e
       -0.12812701 -0.19690639 0.08516827 0.23904584
000050 97 21 b1 be 44 1f a1 3e 00 d2 da be cf 79 8a 3e
       -0.3459594 0.31469166 -0.42738342 0.27046058
000060 c1 fa a1 bd 7a 46 ae be 58 cf 19 be 9e bf 95 be
       -0.07909156 -0.34038144 -0.15020502 -0.29247755
000070 d6 21 00 3e 0f b7 ce 3e 7e 9d 96 3e 48 dc 01 be
       0.12512907 0.40374038 0.29417032 -0.12681687
000080 d1 53 09 3e e8 db a5 3d db ad 21 3e 72 d5 fc 3d
       0.1341088 0.080985844 0.15788977 0.12345399
000090 c1 6e 79 3e a1 25 77 3e fa a0 6b 3e 0f 64 af 3c
       0.24358656 0.24135448 0.23010626 0.021410016
0000a0 92 a3 9a bd 03 f1 1e 3e 45 f3 93 3e 0f ae 66 3c
       -0.0755073 0.15521626 0.28896537 0.014079585
0000b0 ac 34 c1 3d 2d db 06 3e 85 6d 9a 3e 74 b3 45 3d
       0.094338745 0.13169546 0.30161682 0.048266843
0000c0 00 45 81 3e 79 de c0 3d 5e 8f 12 3c 5f 70 5a 3e
       0.25247955 0.09417433 0.008945314 0.21331929
0000d0 b7 6b 5e 3d 18 36 6f 3e 9c b7 c8 bc af e8 c4 3d
       0.054301944 0.23360479 -0.024501614 0.096146934
0000e0 33 ed 51 3d 70 98 28 3c 10 a3 3c bd 14 e0 d7 bc
       0.0512516 0.01029025 -0.046053946 -0.026351966
0000f0 35 97 c1 bc 26 cb 12 3e 95 c0 c2 bd 23 1a c6 3d
       -0.023631671 0.14335307 -0.09509388 0.09672954
000100 34 21 b0 3d b4 83 80 3d 2e 2d a4 3e a4 5f b3 bd
       0.08600083 0.062751204 0.3206572 -0.087584764
000110 e6 a3 51 3e fa 68 9e bd c0 90 84 bb b1 a9 5f be
       0.20472679 -0.077348664 -0.004045576 -0.21842076
000120 16 cd cb 3e 9b bf c1 3e 2c 3f 96 3e 4c bc 68 3e
       0.39804906 0.37841496 0.2934507 0.2272808
000130 3c f4 59 bc f4 79 83 be ce 1b 71 be 17 c4 6d 3e
       -0.013302859 -0.2567898 -0.23545763 0.23219334
000140 86 4b 17 bd bc c0 9d ba 2b 17 1f 3e a0 b7 72 be
       -0.03693726 -0.0012035589 0.15536182 -0.2370286
000150 2b 91 68 3e 34 e5 17 3e 63 ec 04 3d bd 4e 93 be
       0.22711627 0.14833528 0.032452 -0.2877101
000160 b5 a0 11 3e 3f 3c 21 3e 93 e3 06 3e e6 fb 81 3e
       0.14221461 0.15745638 0.1317275 0.25387496
000170 71 37 cf 3d 45 28 81 be c0 44 6c be 48 55 b0 3d
       0.101179965 -0.25226036 -0.23073101 0.08610016
000180 97 29 01 3c 78 74 2b 3d 44 05 2b bd ad ed 98 3e
       0.007883451 0.04185912 -0.04175307 0.29868832
000190 b2 37 74 be dd 6f b8 3d c8 fa 1b be 0c bb bc 3e
       -0.23849371 0.09005711 -0.15232384 0.36861455
0001a0 be fa 1b be 7b fa 9b be 5d 8f 76 be 03 f2 85 be
       -0.1523237 -0.3046454 -0.24078126 -0.26161203
0001b0 72 fa b5 3d f2 ce 95 3e 26 8b 10 3e 55 8a d5 bd
       0.08885659 0.2925945 0.14115581 -0.10426775
0001c0 39 d9 93 3e 68 68 15 3e 93 5a 1a 3e c7 59 36 3e
       0.28876665 0.14590609 0.15073614 0.17807685
0001d0 2a 53 26 3e b8 7a 18 3d 54 20 01 3d 8b 6d 13 3e
       0.16242662 0.03722641 0.03152497 0.14397256
0001e0 60 78 4d 3e dd 39 b4 3e cd d8 06 3e 93 3f fe 3b
       0.2006545 0.35200396 0.1316864 0.0077590435
0001f0 e0 cb b9 3d a3 5b b9 3e e9 49 54 3e a7 1d 23 3e
       0.09072089 0.36202726 0.2073132 0.1592928
000200 2d 9f db 3d 44 26 2b 3e 79 bb 55 3e c5 bd 6d 3e
       0.1072372 0.16713816 0.20872296 0.23216923
000210 fa f4 96 bc d2 04 13 3d dc 8f b7 bd af 8b 00 3c
       -0.01842736 0.03589327 -0.08962986 0.007845803
000220 bc c2 51 3e dd e7 5d 3d 10 c7 60 3d 46 1e 80 bd
       0.20484442 0.0541762 0.05487734 -0.06255774
000230 34 40 a3 3e 16 f8 8d 3d 8e 56 47 3e f0 d9 61 3e
       0.3188492 0.06932084 0.19466612 0.22055793
000240 ab 67 2f bd ac 48 f7 3d fd 65 ed 3d 91 d7 05 3e
       -0.042823475 0.12074408 0.11591718 0.13070513
000250 79 8c e9 3d 20 3d 44 be bd 42 ca 3e bd 78 99 3e
       0.11403746 -0.19163942 0.39504042 0.29974928
000260 29 e1 d8 bd fa f9 a6 3e eb 28 5b 3e 3e 93 72 3d
       -0.10589821 0.32612592 0.21402328 0.059222452
000270 5d 7a 28 be c1 ff fe 3d b6 66 b1 3b b8 22 91 3e
       -0.16452928 0.12451125 0.0054138554 0.283468
000280 1d 06 05 bd f6 37 2c be 18 80 8e 3e f4 e7 ee 3d
       -0.032476533 -0.16818222 0.27832103 0.11665335
000290 c5 49 d8 bc e5 d7 a0 3e 7d f4 52 be 36 04 67 3e
       -0.026402364 0.31414714 -0.20601077 0.225602
0002a0 13 08 a5 3e fa f6 46 bd b2 c9 80 3e 9e f9 86 3d
       0.32232723 -0.04857538 0.2515388 0.065905795
0002b0 dc 21 d4 3d dd d6 d2 3d 46 32 da bd 90 4c 6c 3d
       0.10358021 0.10294888 -0.1065412 0.057690203
0002c0 55 fa a5 bd 8d a9 13 3e 6f 7f 13 3e 1a 6d a5 3d
       -0.08104388 0.14420147 0.14404081 0.0807745
0002d0 2b 01 ce 3d 6f ac e1 bb 5c c5 69 3e 74 6e 83 3e
       0.100588165 -0.0068870108 0.22829193 0.25670207
0002e0 a2 c5 e9 3d 25 20 95 3e f0 49 37 bd 8c 6a ad 3e
       0.114146486 0.29126087 -0.044748247 0.3387035
0002f0 9b 06 e4 bd 2a fb 19 3a cc 17 33 3d fc 16 95 3e
       -0.111340724 0.0005873913 0.043723866 0.29119098
000300 06 88 81 3e 8a 17 4e 3e 9f d9 89 3e c5 78 8a 3e
       0.2529909 0.20126167 0.26923844 0.27045265
000310 6d 01 ba 3d 42 61 05 3e bb 79 ae 3d 7a 9d 22 3e
       0.09082303 0.13025382 0.08519312 0.15880385
000320 0e 33 7c 3e f4 94 7a 3e af a9 9a 3e d4 1b 67 3e
       0.24628851 0.24470884 0.30207583 0.2256921
000330 10 93 8b 3e c0 c5 a1 3c 78 a5 ba 3c f5 c2 f7 3d
       0.27260637 0.019747615 0.02278398 0.12097732
000340 d6 57 1a be 0c e7 b8 3b db f2 2c 3e 52 7f a8 3c
       -0.15072569 0.0056427773 0.16889517 0.020568524
000350 b8 5d 42 3e c3 ca 82 3e 7a a1 d7 3d db 23 72 be
       0.18981063 0.2554532 0.10528846 -0.2364649
000360 ba d4 9c bc e5 01 a6 bd 2e a4 8a 3e 88 00 03 3e
       -0.019144405 -0.0810583 0.27078384 0.12793171
000370 71 00 fb 3d 27 0d ab be 75 1a 29 be 21 d0 b5 3d
       0.122559436 -0.33408472 -0.16513999 0.08877588
000380 f1 56 8c 3b e6 ba 96 3c 24 22 15 3c 9a 59 b1 3e
       0.004282825 0.018399667 0.009102378 0.34638673
000390 0c 81 bf be 18 d7 48 3d 61 3c 8f be f9 be 00 3f
       -0.37403142 0.049033254 -0.27975753 0.502914
0003a0 0f ba 45 3d 6b b0 bd be 36 95 91 be c5 aa c7 be
       0.048273142 -0.3704866 -0.2843415 -0.38997474
0003b0 a7 c9 8e 3e 6c b7 8b 3d 98 c0 b8 3e 51 6f be bd
       0.27888224 0.06822094 0.36084437 -0.09298576
0003c0 8b 5d 85 bb 8c e1 1d 3e 7f ed 02 3e 4c ca 0c be
       -0.004069989 0.1541807 0.1278591 -0.13749045
0003d0 20 24 ac 3e ac 57 1d 3e b5 64 25 3d 26 17 80 3e
       0.3362131 0.15365475 0.040379245 0.2501766
0003e0 57 4d 3f 3e 91 e0 8d 3e 62 fb 90 bd 85 6e 9a 3e
       0.18681847 0.27710393 -0.070791975 0.30162445
0003f0 ed 15 c6 3d ea 44 7f 3d e8 81 1c 3e 03 b9 3a 3e
       0.09672151 0.06232158 0.1528393 0.18234639

decoder.2.bias f4 [32]
000000 8d ae b5 bd b1 75 a3 be f1 4a f7 3d 55 64 c4 3e
       -0.088711835 -0.3192573 0.12074841 0.38357797
000010 9d 11 18 bc 94 2f 00 3f 83 73 1f be 41 8a cf bc
       -0.009281543 0.500726 -0.15571408 -0.02533448
000020 5c 5d c0 3e 04 20 b5 bd c9 54 f8 3e 7d 73 e7 3d
       0.37571228 -0.08843997 0.48502186 0.113013245
000030 37 76 76 bd ee a0 4c 3e 60 7d 96 be a5 74 16 3e
       -0.060171332 0.19983265 -0.2939253 0.14692934
000040 6f ef fc 3d 78 3a 2b 3e c1 31 a7 bd d7 2d 06 3f
       0.12350356 0.16721523 -0.08163787 0.52413696
000050 35 2d d9 3e f8 f7 ad 3e c3 9d b6 3d eb 10 87 3e
       0.42417303 0.33978248 0.089168094 0.26380095
000060 96 11 80 3e 83 1a 76 be d1 7b 53 3e 01 db de 3e
       0.25013417 -0.24033551 0.20652701 0.43526462
000070 2d fe 72 3d 6c 52 40 3e d3 94 23 be 98 9c 63 3d
       0.059324432 0.18781441 -0.1597474 0.05556926

decoder.4.weight f4 [60, 32]
000000 22 f1 1c be c3 08 fa bd 63 3e 90 3c 84 db af bb
       -0.1532636 -0.122087024 0.017607873 -0.0053667445
000010 18 f7 9b 3d c8 2c cc bd 3a e1 91 bd 0b d9 da 3c
       0.07615489 -0.09969479 -0.07123037 0.026714822
000020 97 97 92 bd a7 6b 9a bd dc 27 42 3d 57 c3 05 bd
       -0.0715782 -0.07540064 0.047401294 -0.032656994
000030 fb e7 89 3d 41 4a bb bd d8 d2 67 3e 39 45 c2 3d
       0.067337 -0.09145022 0.22639024 0.094858594
000040 9b 17 f1 bd 70 18 e3 bc 0e 7f 94 bd fa 0d 49 3d
       -0.117720805 -0.027721614 -0.07250796 0.049085595
000050 01 8c a7 bd 20 4d b9 bd 67 b7 c2 3c 90 b4 95 3c
       -0.081810005 -0.090479136 0.023769094 0.018274575
000060 f9 be 87 3d cb 42 73 ba 86 87 90 3c ef 33 4f 3c
       0.06628222 -0.0009279667 0.017642748 0.012646659
000070 85 33 31 3d d3 b0 c8 bd b9 38 5c bc c3 54 c8 3d
       0.043262023 -0.097993515 -0.013441258 0.09781792
000080 d6 34 ad bd 57 53 bf bd 19 a8 97 be b3 dd bb be
       -0.08457343 -0.09342068 -0.29620436 -0.3669258
000090 12 37 98 be 5a 04 78 bd 41 de d5 be 42 f5 9d be
       -0.29729515 -0.060551025 -0.4177113 -0.3085118
0000a0 c7 2a bb be a7 d7 bf be a0 af 85 be 19 ed 66 be
       -0.36556074 -0.37469217 -0.26110554 -0.22551383
0000b0 8b d0 5a be e8 4a 2f be 05 66 c6 bd ef f0 b3 be
       -0.21368615 -0.17118418 -0.096874274 -0.35144755
0000c0 d8 09 cf be 34 9a aa be 9e 7b a2 be 46 8a 48 3c
       -0.40437198 -0.33320773 -0.31734937 0.012239998
0000d0 c6 9f a2 bd ac 3d ae be da 79 d6 bf 4e 4e a0 be
       -0.079406306 -0.34031427 -1.6755936 -0.31309742
0000e0 5e ec 9a be 72 5f 9f be 0a f0 01 be 19 21 bb be
       -0.3025846 -0.31127506 -0.12689224 -0.3654869
0000f0 bf 0d a5 bd ee 37 0d bd 6f a1 42 bf 3c 6a 81 be
       -0.080592625 -0.034477167 -0.7602758 -0.25276363
000100 63 fb 96 bd 0d ba bc be 2c 80 28 3d ed d9 46 bc
       -0.07372167 -0.36860695 0.04113786 -0.0121369185
000110 97 1d e1 3d ab eb 86 3e e2 3e 46 be 8f 47 9b bd
       0.10991972 0.26351675 -0.19359925 -0.07582008
000120 fb fb a4 bc 93 98 e5 bd 2b f2 33 3e 20 f5 91 bd
       -0.020139685 -0.11210742 0.17572848 -0.07126832
000130 aa 01 d8 bc 8e 15 28 3e 30 b7 07 bf d2 50 b0 3d
       -0.026367981 0.16414472 -0.53013897 0.08609165
000140 b5 5e 99 3d a3 79 9f 3c 05 4c 86 bc 52 f7 8a 3d
       0.07488767 0.01946718 -0.01639367 0.06785454
000150 5a 1e bc 3d 35 36 ce 3c 26 a3 a3 3e 96 80 0c 3c
       0.091854766 0.025172332 0.3196041 0.008575579
000160 b9 da 6e 3c b2 b5 99 be 20 14 a1 3d 82 86 a7 3d
       0.014578515 -0.30021435 0.07865167 0.08179952
000170 a6 a4 be 3c f8 91 f4 be 0d 8f b3 be 63 2f 1e be
       0.02327187 -0.47767615 -0.35070077 -0.15447764
000180 88 37 10 be bf 8d a5 3e 91 fe c9 3c c7 79 b2 bd
       -0.14083683 0.32334706 0.02465752 -0.087146334
000190 8c 1e 2b 3d 20 f3 ed 3d 31 2a 71 3d 79 07 18 3e
       0.04177718 0.11618638 0.058878127 0.148466
0001a0 ad 2a 3a be 2d e3 e4 3c a4 2b 59 be 53 c4 9a bd
       -0.18180342 0.027940357 -0.21208054 -0.07556977
0001b0 23 64 a3 bd c3 94 67 be 31 c9 70 3e eb a1 1e 3e
       -0.07978084 -0.22615342 0.23514248 0.15491454
0001c0 82 22 28 bb a4 d8 a6 bd 99 55 04 3c 18 dc 04 bc
       -0.0025655334 -0.0814679 0.008077049 -0.008109115
0001d0 fb 13 27 3d 17 d1 75 be c1 a3 32 3e 00 6d 66 bd
       0.04079054 -0.24005543 0.1744528 -0.056256294
0001e0 a4 70 ca bd 4e e0 3d bd 6d 0f e2 bd a3 25 8b 3c
       -0.09884766 -0.04635649 -0.110380985 0.01698572
0001f0 cf 8b ba 3d 4c a6 d8 3d 60 46 e9 3e 6e 5a c5 3d
       0.091086976 0.105785936 0.45561504 0.09636389
000200 bf 5f 47 3d c1 68 cf bc f7 bf 9f bd 88 5a 05 3e
       0.048675295 -0.025318505 -0.07800286 0.13022816
000210 2a b0 59 be d2 fc db bd f4 7b 53 3d 75 13 5e bd
       -0.21258608 -0.10741581 0.051631883 -0.054217774
000220 10 c4 2e be 32 0f f6 bd c3 32 31 be d8 39 0d be
       -0.1706698 -0.12014617 -0.1730452 -0.13791597
000230 cb ed 8e bd c5 a8 95 3d 31 67 6a 3c 66 6a 5c bc
       -0.06978949 0.07307581 0.014306829 -0.013453102
000240 5b 84 bb 3d 4e 40 d8 bd 89 7e 39 3d e9 da 2c be
       0.09156104 -0.1055914 0.04528669 -0.16880383
000250 71 01 90 3c 0a 15 5a bd 89 78 90 3d 3a bc 68 bd
       0.017578812 -0.05324272 0.0705424 -0.05682013
000260 77 19 66 bd 07 14 ce 3d 82 44 98 3d 5c cf 48 be
       -0.05617663 0.10062414 0.07434942 -0.19610351
000270 98 a0 82 3d c8 db ef bd 54 a3 cb bd e2 1b 13 bc
       0.06378287 -0.11711842 -0.09943262 -0.008978816
000280 4d 7a 0d be 7d 43 37 3e 64 0a ff bb f2 45 5a bd
       -0.13816185 0.17896838 -0.007783221 -0.05328936
000290 ce 74 48 bd f7 ea 9d 3d 0e 6c cf 3c ae 0f 1b 3c
       -0.04893952 0.077108316 0.02532008 0.009464188
0002a0 2a 59 89 bc 11 bb d1 bb d6 4a 0d 3e d8 b3 d9 3c
       -0.01676615 -0.006400474 0.13798079 0.026575014
0002b0 b7 69 1c be 63 3d 54 bd 30 05 7e 3d 19 c6 32 3c
       -0.15274702 -0.051816355 0.062016666 0.010911488
0002c0 33 1b ef 3c cf 71 79 bd e0 77 c6 3d bb 0d 4b 3e
       0.029187774 -0.060899552 0.09690833 0.19829457
0002d0 73 48 36 3d aa 47 52 3b 31 7b 80 3d 7a 64 6c 3d
       0.044502687 0.0032086172 0.06273497 0.05771301
0002e0 cc 38 e4 bc d1 3b e0 bd 16 15 5b bd db 13 6b bd
       -0.027859114 -0.10948909 -0.053486906 -0.057391983
0002f0 ce d4 09 3d a7 40 08 3e 90 a9 8e 3d d3 6e ea 3d
       0.033650212 0.13305913 0.06965935 0.11446919
000300 30 74 15 3e a6 e4 ab 3d 17 1f 96 3d a5 5c 72 3d
       0.14595103 0.083932206 0.07330149 0.059170384
000310 6a 4c a8 3d 5a 74 9a bd 39 fb b1 3d 62 64 0c 3d
       0.082177 -0.075417235 0.08690495 0.03427542
000320 f8 50 b1 bc 42 d2 2f bd d5 7e 09 3e a3 94 f2 3d
       -0.021645054 -0.042925127 0.13427289 0.118447565
000330 82 11 73 bd a9 52 d3 3d df 78 fc bd f5 23 cf bc
       -0.05934287 0.103185005 -0.12327742 -0.0252857
000340 37 d2 a3 3d 69 9f b4 bd 64 68 dc bd 4b af 32 3d
       0.0799908 -0.088194676 -0.107620984 0.043624204
000350 4d bd 73 3d be 4f e7 3d 3b a4 6e bd f9 c6 ac 3d
       0.059506703 0.112945065 -0.05826209 0.084363885
000360 10 10 7b bd d0 e4 6b 3c 59 c6 a5 3d af a4 23 be
       -0.061294615 0.014397815 0.080944724 -0.1598079
000370 ad 75 e5 bd 04 09 12 be db 40 80 3d a4 1f d3 bd
       -0.112040855 -0.14261252 0.0626237 -0.10308769
000380 3d f3 ed 3d 59 8b 86 3c 8a b8 ab be b7 14 3e be
       0.1161866 0.016423868 -0.3353923 -0.1856259
000390 a3 d4 bd be 43 08 54 be c5 17 76 be 5c 95 4b be
       -0.3707629 -0.20706277 -0.24032505 -0.19881195
0003a0 54 5a 09 be 5b 9b bd be a9 e1 4d bd ab ac 46 be
       -0.13413364 -0.3703259 -0.050264034 -0.19401805
0003b0 44 9f a3 be c6 d8 24 be 2a 67 b1 be b1 15 27 be
       -0.31957448 -0.16098318 -0.3464902 -0.16316868
0003c0 f1 4a 14 bf 2c 4a f4 be 27 3a 5a be 79 a2 5b bb
       -0.5792685 -0.4771284 -0.21311246 -0.003351359
0003d0 31 73 a0 be 2d 33 e9 bd 36 09 be bf 00 ad 49 be
       -0.31337884 -0.11386714 -1.4846561 -0.196949
0003e0 0b 8b 9d be 74 69 c0 be fa 12 d1 bd eb 5c b6 be
       -0.30770144 -0.37580454 -0.102086976 -0.35617766
0003f0 ca c5 98 be 56 c2 6b be 13 86 18 bf 29 3a ae be
       -0.298384 -0.23023352 -0.5957958 -0.34028748

decoder.4.bias f4 [60]
000000 39 b1 70 3d 38 62 39 be 1e 47 99 3d 4c de a1 be
       0.058762763 -0.18103874 0.07484268 -0.31614912
000010 90 ec c9 bd c6 a2 47 bc 85 a0 f8 bd f1 fc 85 bd
       -0.09859574 -0.012184804 -0.12139992 -0.06542385
000020 0f 7f 66 3d 48 54 4e be d6 8b 04 be ea ab d2 3c
       0.056273516 -0.20149338 -0.12943968 0.02571674
000030 63 c1 87 bc f7 03 1d bd 2a fd a0 3e 12 ba b5 bd
       -0.016571706 -0.03833386 0.3144315 -0.08873381
000040 b8 12 a5 3d ff ce 7a 3d d8 90 af 3d 34 55 10 be
       0.08060211 0.061232563 0.08572549 -0.14095002
000050 2f 05 f3 3d 2a a9 80 be 40 e3 42 be db 71 96 3d
       0.11866223 -0.25129062 -0.19032001 0.07345935
000060 20 10 85 bd a2 58 bd bc 8e bd 98 3d 42 e7 43 be
       -0.06497216 -0.023113552 0.0745803 -0.19131187
000070 80 8a ba bd 03 13 01 3e 84 e8 d0 3d 54 b0 6b 3d
       -0.09108448 0.12604909 0.10200599 0.057541206
000080 d2 9a 64 3e 41 83 c4 be 30 21 f9 bd 18 bd 63 3d
       0.22324684 -0.3838139 -0.12164533 0.055600256
000090 e0 0e 81 3d 67 f6 0e bd 76 d8 c8 3b 73 cf f4 bd
       0.06301665 -0.034902956 0.00612932 -0.1195363
0000a0 d4 00 18 be a8 e3 c4 bd 22 5d 8c 3c 92 46 b1 bd
       -0.14844066 -0.096137345 0.017134253 -0.08656038
0000b0 ba b9 ff 3d 4e fb fc bd dd 1f d0 bd d5 2c 49 3d
       0.124865964 -0.1235262 -0.101623274 0.04911502
0000c0 8c d1 a2 bc 32 41 6e be 79 63 83 3e 04 a0 96 be
       -0.01987531 -0.23267058 0.2566183 -0.29418957
0000d0 b9 ec d9 bd 5a 7c 0b 3c 88 a3 c6 3d aa d5 04 bd
       -0.106408544 0.008513534 0.0969916 -0.03243033
0000e0 63 ae 95 3e 94 ac 8f be a4 a4 95 3d 2a 8d 70 bd
       0.2923461 -0.28061354 0.07306793 -0.058728375
